{"format": "graph-model", "generatedBy": "2.19.0", "convertedBy": "TensorFlow.js Converter v4.22.0", "signature": {"inputs": {"input_layer": {"name": "input_layer:0", "dtype": "DT_FLOAT", "tensorShape": {"dim": [{"size": "-1"}, {"size": "256"}, {"size": "256"}, {"size": "3"}]}}}, "outputs": {"output_0": {"name": "Identity:0", "dtype": "DT_FLOAT", "tensorShape": {"dim": [{"size": "-1"}, {"size": "256"}, {"size": "256"}, {"size": "3"}]}}}}, "modelTopology": {"node": [{"name": "StatefulPartitionedCall/functional_1/conv2d_transpose_3_1/strided_slice/stack", "op": "Const", "attr": {"value": {"tensor": {"dtype": "DT_INT32", "tensorShape": {"dim": [{"size": "1"}]}}}, "dtype": {"type": "DT_INT32"}}}, {"name": "StatefulPartitionedCall/functional_1/conv2d_transpose_3_1/strided_slice/stack_1", "op": "Const", "attr": {"value": {"tensor": {"dtype": "DT_INT32", "tensorShape": {"dim": [{"size": "1"}]}}}, "dtype": {"type": "DT_INT32"}}}, {"name": "StatefulPartitionedCall/functional_1/conv2d_transpose_3_1/strided_slice/stack_2", "op": "Const", "attr": {"value": {"tensor": {"dtype": "DT_INT32", "tensorShape": {"dim": [{"size": "1"}]}}}, "dtype": {"type": "DT_INT32"}}}, {"name": "StatefulPartitionedCall/functional_1/conv2d_transpose_3_1/conv_transpose/input_sizes/1", "op": "Const", "attr": {"value": {"tensor": {"dtype": "DT_INT32", "tensorShape": {}}}, "dtype": {"type": "DT_INT32"}}}, {"name": "StatefulPartitionedCall/functional_1/conv2d_transpose_3_1/conv_transpose/input_sizes/2", "op": "Const", "attr": {"value": {"tensor": {"dtype": "DT_INT32", "tensorShape": {}}}, "dtype": {"type": "DT_INT32"}}}, {"name": "StatefulPartitionedCall/functional_1/conv2d_transpose_3_1/conv_transpose/input_sizes/3", "op": "Const", "attr": {"value": {"tensor": {"dtype": "DT_INT32", "tensorShape": {}}}, "dtype": {"type": "DT_INT32"}}}, {"name": "StatefulPartitionedCall/functional_1/conv2d_transpose_3_1/conv_transpose/ReadVariableOp", "op": "Const", "attr": {"value": {"tensor": {"dtype": "DT_FLOAT", "tensorShape": {"dim": [{"size": "2"}, {"size": "2"}, {"size": "6"}, {"size": "8"}]}}}, "dtype": {"type": "DT_FLOAT"}}}, {"name": "StatefulPartitionedCall/functional_1/conv2d_transpose_2_1/strided_slice/stack", "op": "Const", "attr": {"value": {"tensor": {"dtype": "DT_INT32", "tensorShape": {"dim": [{"size": "1"}]}}}, "dtype": {"type": "DT_INT32"}}}, {"name": "StatefulPartitionedCall/functional_1/conv2d_transpose_2_1/strided_slice/stack_1", "op": "Const", "attr": {"value": {"tensor": {"dtype": "DT_INT32", "tensorShape": {"dim": [{"size": "1"}]}}}, "dtype": {"type": "DT_INT32"}}}, {"name": "StatefulPartitionedCall/functional_1/conv2d_transpose_2_1/strided_slice/stack_2", "op": "Const", "attr": {"value": {"tensor": {"dtype": "DT_INT32", "tensorShape": {"dim": [{"size": "1"}]}}}, "dtype": {"type": "DT_INT32"}}}, {"name": "StatefulPartitionedCall/functional_1/conv2d_transpose_2_1/conv_transpose/input_sizes/1", "op": "Const", "attr": {"value": {"tensor": {"dtype": "DT_INT32", "tensorShape": {}}}, "dtype": {"type": "DT_INT32"}}}, {"name": "StatefulPartitionedCall/functional_1/conv2d_transpose_2_1/conv_transpose/input_sizes/2", "op": "Const", "attr": {"value": {"tensor": {"dtype": "DT_INT32", "tensorShape": {}}}, "dtype": {"type": "DT_INT32"}}}, {"name": "StatefulPartitionedCall/functional_1/conv2d_transpose_2_1/conv_transpose/input_sizes/3", "op": "Const", "attr": {"value": {"tensor": {"dtype": "DT_INT32", "tensorShape": {}}}, "dtype": {"type": "DT_INT32"}}}, {"name": "StatefulPartitionedCall/functional_1/conv2d_transpose_2_1/conv_transpose/ReadVariableOp", "op": "Const", "attr": {"value": {"tensor": {"dtype": "DT_FLOAT", "tensorShape": {"dim": [{"size": "2"}, {"size": "2"}, {"size": "8"}, {"size": "10"}]}}}, "dtype": {"type": "DT_FLOAT"}}}, {"name": "StatefulPartitionedCall/functional_1/conv2d_transpose_1_2/strided_slice/stack", "op": "Const", "attr": {"value": {"tensor": {"dtype": "DT_INT32", "tensorShape": {"dim": [{"size": "1"}]}}}, "dtype": {"type": "DT_INT32"}}}, {"name": "StatefulPartitionedCall/functional_1/conv2d_transpose_1_2/strided_slice/stack_1", "op": "Const", "attr": {"value": {"tensor": {"dtype": "DT_INT32", "tensorShape": {"dim": [{"size": "1"}]}}}, "dtype": {"type": "DT_INT32"}}}, {"name": "StatefulPartitionedCall/functional_1/conv2d_transpose_1_2/strided_slice/stack_2", "op": "Const", "attr": {"value": {"tensor": {"dtype": "DT_INT32", "tensorShape": {"dim": [{"size": "1"}]}}}, "dtype": {"type": "DT_INT32"}}}, {"name": "StatefulPartitionedCall/functional_1/conv2d_transpose_1_2/conv_transpose/input_sizes/1", "op": "Const", "attr": {"value": {"tensor": {"dtype": "DT_INT32", "tensorShape": {}}}, "dtype": {"type": "DT_INT32"}}}, {"name": "StatefulPartitionedCall/functional_1/conv2d_transpose_1_2/conv_transpose/input_sizes/2", "op": "Const", "attr": {"value": {"tensor": {"dtype": "DT_INT32", "tensorShape": {}}}, "dtype": {"type": "DT_INT32"}}}, {"name": "StatefulPartitionedCall/functional_1/conv2d_transpose_1_2/conv_transpose/input_sizes/3", "op": "Const", "attr": {"value": {"tensor": {"dtype": "DT_INT32", "tensorShape": {}}}, "dtype": {"type": "DT_INT32"}}}, {"name": "StatefulPartitionedCall/functional_1/conv2d_transpose_1_2/conv_transpose/ReadVariableOp", "op": "Const", "attr": {"value": {"tensor": {"dtype": "DT_FLOAT", "tensorShape": {"dim": [{"size": "2"}, {"size": "2"}, {"size": "10"}, {"size": "12"}]}}}, "dtype": {"type": "DT_FLOAT"}}}, {"name": "StatefulPartitionedCall/functional_1/conv2d_transpose_1/strided_slice/stack", "op": "Const", "attr": {"value": {"tensor": {"dtype": "DT_INT32", "tensorShape": {"dim": [{"size": "1"}]}}}, "dtype": {"type": "DT_INT32"}}}, {"name": "StatefulPartitionedCall/functional_1/conv2d_transpose_1/strided_slice/stack_1", "op": "Const", "attr": {"value": {"tensor": {"dtype": "DT_INT32", "tensorShape": {"dim": [{"size": "1"}]}}}, "dtype": {"type": "DT_INT32"}}}, {"name": "StatefulPartitionedCall/functional_1/conv2d_transpose_1/strided_slice/stack_2", "op": "Const", "attr": {"value": {"tensor": {"dtype": "DT_INT32", "tensorShape": {"dim": [{"size": "1"}]}}}, "dtype": {"type": "DT_INT32"}}}, {"name": "StatefulPartitionedCall/functional_1/conv2d_transpose_1/conv_transpose/input_sizes/1", "op": "Const", "attr": {"value": {"tensor": {"dtype": "DT_INT32", "tensorShape": {}}}, "dtype": {"type": "DT_INT32"}}}, {"name": "StatefulPartitionedCall/functional_1/conv2d_transpose_1/conv_transpose/input_sizes/2", "op": "Const", "attr": {"value": {"tensor": {"dtype": "DT_INT32", "tensorShape": {}}}, "dtype": {"type": "DT_INT32"}}}, {"name": "StatefulPartitionedCall/functional_1/conv2d_transpose_1/conv_transpose/input_sizes/3", "op": "Const", "attr": {"value": {"tensor": {"dtype": "DT_INT32", "tensorShape": {}}}, "dtype": {"type": "DT_INT32"}}}, {"name": "StatefulPartitionedCall/functional_1/conv2d_transpose_1/conv_transpose/ReadVariableOp", "op": "Const", "attr": {"value": {"tensor": {"dtype": "DT_FLOAT", "tensorShape": {"dim": [{"size": "2"}, {"size": "2"}, {"size": "12"}, {"size": "14"}]}}}, "dtype": {"type": "DT_FLOAT"}}}, {"name": "StatefulPartitionedCall/functional_1/conv2d_8_1/convolution/ReadVariableOp", "op": "Const", "attr": {"value": {"tensor": {"dtype": "DT_FLOAT", "tensorShape": {"dim": [{"size": "3"}, {"size": "3"}, {"size": "12"}, {"size": "14"}]}}}, "dtype": {"type": "DT_FLOAT"}}}, {"name": "StatefulPartitionedCall/functional_1/conv2d_8_1/Squeeze", "op": "Const", "attr": {"value": {"tensor": {"dtype": "DT_FLOAT", "tensorShape": {"dim": [{"size": "14"}]}}}, "dtype": {"type": "DT_FLOAT"}}}, {"name": "StatefulPartitionedCall/functional_1/conv2d_9_1/convolution/ReadVariableOp", "op": "Const", "attr": {"value": {"tensor": {"dtype": "DT_FLOAT", "tensorShape": {"dim": [{"size": "3"}, {"size": "3"}, {"size": "14"}, {"size": "14"}]}}}, "dtype": {"type": "DT_FLOAT"}}}, {"name": "StatefulPartitionedCall/functional_1/conv2d_9_1/Squeeze", "op": "Const", "attr": {"value": {"tensor": {"dtype": "DT_FLOAT", "tensorShape": {"dim": [{"size": "14"}]}}}, "dtype": {"type": "DT_FLOAT"}}}, {"name": "StatefulPartitionedCall/functional_1/conv2d_transpose_1/Squeeze", "op": "Const", "attr": {"value": {"tensor": {"dtype": "DT_FLOAT", "tensorShape": {"dim": [{"size": "12"}]}}}, "dtype": {"type": "DT_FLOAT"}}}, {"name": "StatefulPartitionedCall/functional_1/conv2d_6_1/convolution/ReadVariableOp", "op": "Const", "attr": {"value": {"tensor": {"dtype": "DT_FLOAT", "tensorShape": {"dim": [{"size": "3"}, {"size": "3"}, {"size": "10"}, {"size": "12"}]}}}, "dtype": {"type": "DT_FLOAT"}}}, {"name": "StatefulPartitionedCall/functional_1/conv2d_6_1/Squeeze", "op": "Const", "attr": {"value": {"tensor": {"dtype": "DT_FLOAT", "tensorShape": {"dim": [{"size": "12"}]}}}, "dtype": {"type": "DT_FLOAT"}}}, {"name": "StatefulPartitionedCall/functional_1/conv2d_7_1/convolution/ReadVariableOp", "op": "Const", "attr": {"value": {"tensor": {"dtype": "DT_FLOAT", "tensorShape": {"dim": [{"size": "3"}, {"size": "3"}, {"size": "12"}, {"size": "12"}]}}}, "dtype": {"type": "DT_FLOAT"}}}, {"name": "StatefulPartitionedCall/functional_1/conv2d_7_1/Squeeze", "op": "Const", "attr": {"value": {"tensor": {"dtype": "DT_FLOAT", "tensorShape": {"dim": [{"size": "12"}]}}}, "dtype": {"type": "DT_FLOAT"}}}, {"name": "StatefulPartitionedCall/functional_1/concatenate_1/concat/axis", "op": "Const", "attr": {"value": {"tensor": {"dtype": "DT_INT32", "tensorShape": {}}}, "dtype": {"type": "DT_INT32"}}}, {"name": "StatefulPartitionedCall/functional_1/conv2d_10_1/convolution/ReadVariableOp", "op": "Const", "attr": {"value": {"tensor": {"dtype": "DT_FLOAT", "tensorShape": {"dim": [{"size": "3"}, {"size": "3"}, {"size": "24"}, {"size": "12"}]}}}, "dtype": {"type": "DT_FLOAT"}}}, {"name": "StatefulPartitionedCall/functional_1/conv2d_10_1/Squeeze", "op": "Const", "attr": {"value": {"tensor": {"dtype": "DT_FLOAT", "tensorShape": {"dim": [{"size": "12"}]}}}, "dtype": {"type": "DT_FLOAT"}}}, {"name": "StatefulPartitionedCall/functional_1/conv2d_11_1/convolution/ReadVariableOp", "op": "Const", "attr": {"value": {"tensor": {"dtype": "DT_FLOAT", "tensorShape": {"dim": [{"size": "3"}, {"size": "3"}, {"size": "12"}, {"size": "12"}]}}}, "dtype": {"type": "DT_FLOAT"}}}, {"name": "StatefulPartitionedCall/functional_1/conv2d_11_1/Squeeze", "op": "Const", "attr": {"value": {"tensor": {"dtype": "DT_FLOAT", "tensorShape": {"dim": [{"size": "12"}]}}}, "dtype": {"type": "DT_FLOAT"}}}, {"name": "StatefulPartitionedCall/functional_1/conv2d_transpose_1_2/Squeeze", "op": "Const", "attr": {"value": {"tensor": {"dtype": "DT_FLOAT", "tensorShape": {"dim": [{"size": "10"}]}}}, "dtype": {"type": "DT_FLOAT"}}}, {"name": "StatefulPartitionedCall/functional_1/conv2d_4_1/convolution/ReadVariableOp", "op": "Const", "attr": {"value": {"tensor": {"dtype": "DT_FLOAT", "tensorShape": {"dim": [{"size": "3"}, {"size": "3"}, {"size": "8"}, {"size": "10"}]}}}, "dtype": {"type": "DT_FLOAT"}}}, {"name": "StatefulPartitionedCall/functional_1/conv2d_4_1/Squeeze", "op": "Const", "attr": {"value": {"tensor": {"dtype": "DT_FLOAT", "tensorShape": {"dim": [{"size": "10"}]}}}, "dtype": {"type": "DT_FLOAT"}}}, {"name": "StatefulPartitionedCall/functional_1/conv2d_5_1/convolution/ReadVariableOp", "op": "Const", "attr": {"value": {"tensor": {"dtype": "DT_FLOAT", "tensorShape": {"dim": [{"size": "3"}, {"size": "3"}, {"size": "10"}, {"size": "10"}]}}}, "dtype": {"type": "DT_FLOAT"}}}, {"name": "StatefulPartitionedCall/functional_1/conv2d_5_1/Squeeze", "op": "Const", "attr": {"value": {"tensor": {"dtype": "DT_FLOAT", "tensorShape": {"dim": [{"size": "10"}]}}}, "dtype": {"type": "DT_FLOAT"}}}, {"name": "StatefulPartitionedCall/functional_1/concatenate_1_2/concat/axis", "op": "Const", "attr": {"value": {"tensor": {"dtype": "DT_INT32", "tensorShape": {}}}, "dtype": {"type": "DT_INT32"}}}, {"name": "StatefulPartitionedCall/functional_1/conv2d_12_1/convolution/ReadVariableOp", "op": "Const", "attr": {"value": {"tensor": {"dtype": "DT_FLOAT", "tensorShape": {"dim": [{"size": "3"}, {"size": "3"}, {"size": "20"}, {"size": "10"}]}}}, "dtype": {"type": "DT_FLOAT"}}}, {"name": "StatefulPartitionedCall/functional_1/conv2d_12_1/Squeeze", "op": "Const", "attr": {"value": {"tensor": {"dtype": "DT_FLOAT", "tensorShape": {"dim": [{"size": "10"}]}}}, "dtype": {"type": "DT_FLOAT"}}}, {"name": "StatefulPartitionedCall/functional_1/conv2d_13_1/convolution/ReadVariableOp", "op": "Const", "attr": {"value": {"tensor": {"dtype": "DT_FLOAT", "tensorShape": {"dim": [{"size": "3"}, {"size": "3"}, {"size": "10"}, {"size": "10"}]}}}, "dtype": {"type": "DT_FLOAT"}}}, {"name": "StatefulPartitionedCall/functional_1/conv2d_13_1/Squeeze", "op": "Const", "attr": {"value": {"tensor": {"dtype": "DT_FLOAT", "tensorShape": {"dim": [{"size": "10"}]}}}, "dtype": {"type": "DT_FLOAT"}}}, {"name": "StatefulPartitionedCall/functional_1/conv2d_transpose_2_1/Squeeze", "op": "Const", "attr": {"value": {"tensor": {"dtype": "DT_FLOAT", "tensorShape": {"dim": [{"size": "8"}]}}}, "dtype": {"type": "DT_FLOAT"}}}, {"name": "StatefulPartitionedCall/functional_1/conv2d_2_1/convolution/ReadVariableOp", "op": "Const", "attr": {"value": {"tensor": {"dtype": "DT_FLOAT", "tensorShape": {"dim": [{"size": "3"}, {"size": "3"}, {"size": "6"}, {"size": "8"}]}}}, "dtype": {"type": "DT_FLOAT"}}}, {"name": "StatefulPartitionedCall/functional_1/conv2d_2_1/Squeeze", "op": "Const", "attr": {"value": {"tensor": {"dtype": "DT_FLOAT", "tensorShape": {"dim": [{"size": "8"}]}}}, "dtype": {"type": "DT_FLOAT"}}}, {"name": "StatefulPartitionedCall/functional_1/conv2d_3_1/convolution/ReadVariableOp", "op": "Const", "attr": {"value": {"tensor": {"dtype": "DT_FLOAT", "tensorShape": {"dim": [{"size": "3"}, {"size": "3"}, {"size": "8"}, {"size": "8"}]}}}, "dtype": {"type": "DT_FLOAT"}}}, {"name": "StatefulPartitionedCall/functional_1/conv2d_3_1/Squeeze", "op": "Const", "attr": {"value": {"tensor": {"dtype": "DT_FLOAT", "tensorShape": {"dim": [{"size": "8"}]}}}, "dtype": {"type": "DT_FLOAT"}}}, {"name": "StatefulPartitionedCall/functional_1/concatenate_2_1/concat/axis", "op": "Const", "attr": {"value": {"tensor": {"dtype": "DT_INT32", "tensorShape": {}}}, "dtype": {"type": "DT_INT32"}}}, {"name": "StatefulPartitionedCall/functional_1/conv2d_14_1/convolution/ReadVariableOp", "op": "Const", "attr": {"value": {"tensor": {"dtype": "DT_FLOAT", "tensorShape": {"dim": [{"size": "3"}, {"size": "3"}, {"size": "16"}, {"size": "8"}]}}}, "dtype": {"type": "DT_FLOAT"}}}, {"name": "StatefulPartitionedCall/functional_1/conv2d_14_1/Squeeze", "op": "Const", "attr": {"value": {"tensor": {"dtype": "DT_FLOAT", "tensorShape": {"dim": [{"size": "8"}]}}}, "dtype": {"type": "DT_FLOAT"}}}, {"name": "StatefulPartitionedCall/functional_1/conv2d_15_1/convolution/ReadVariableOp", "op": "Const", "attr": {"value": {"tensor": {"dtype": "DT_FLOAT", "tensorShape": {"dim": [{"size": "3"}, {"size": "3"}, {"size": "8"}, {"size": "8"}]}}}, "dtype": {"type": "DT_FLOAT"}}}, {"name": "StatefulPartitionedCall/functional_1/conv2d_15_1/Squeeze", "op": "Const", "attr": {"value": {"tensor": {"dtype": "DT_FLOAT", "tensorShape": {"dim": [{"size": "8"}]}}}, "dtype": {"type": "DT_FLOAT"}}}, {"name": "StatefulPartitionedCall/functional_1/conv2d_transpose_3_1/Squeeze", "op": "Const", "attr": {"value": {"tensor": {"dtype": "DT_FLOAT", "tensorShape": {"dim": [{"size": "6"}]}}}, "dtype": {"type": "DT_FLOAT"}}}, {"name": "StatefulPartitionedCall/functional_1/conv2d_1/convolution/ArithmeticOptimizer/FoldMultiplyIntoConv_scaled_StatefulPartitionedCall/functional_1/conv2d_1/convolution_ReadVariableOp", "op": "Const", "attr": {"value": {"tensor": {"dtype": "DT_FLOAT", "tensorShape": {"dim": [{"size": "3"}, {"size": "3"}, {"size": "3"}, {"size": "6"}]}}}, "dtype": {"type": "DT_FLOAT"}}}, {"name": "StatefulPartitionedCall/functional_1/conv2d_1/Squeeze", "op": "Const", "attr": {"value": {"tensor": {"dtype": "DT_FLOAT", "tensorShape": {"dim": [{"size": "6"}]}}}, "dtype": {"type": "DT_FLOAT"}}}, {"name": "StatefulPartitionedCall/functional_1/batch_normalization_1/batchnorm/mul", "op": "Const", "attr": {"value": {"tensor": {"dtype": "DT_FLOAT", "tensorShape": {"dim": [{"size": "6"}]}}}, "dtype": {"type": "DT_FLOAT"}}}, {"name": "StatefulPartitionedCall/functional_1/batch_normalization_1/batchnorm/sub", "op": "Const", "attr": {"value": {"tensor": {"dtype": "DT_FLOAT", "tensorShape": {"dim": [{"size": "6"}]}}}, "dtype": {"type": "DT_FLOAT"}}}, {"name": "StatefulPartitionedCall/functional_1/conv2d_1_2/convolution/ReadVariableOp", "op": "Const", "attr": {"value": {"tensor": {"dtype": "DT_FLOAT", "tensorShape": {"dim": [{"size": "3"}, {"size": "3"}, {"size": "6"}, {"size": "6"}]}}}, "dtype": {"type": "DT_FLOAT"}}}, {"name": "StatefulPartitionedCall/functional_1/conv2d_1_2/Squeeze", "op": "Const", "attr": {"value": {"tensor": {"dtype": "DT_FLOAT", "tensorShape": {"dim": [{"size": "6"}]}}}, "dtype": {"type": "DT_FLOAT"}}}, {"name": "StatefulPartitionedCall/functional_1/concatenate_3_1/concat/axis", "op": "Const", "attr": {"value": {"tensor": {"dtype": "DT_INT32", "tensorShape": {}}}, "dtype": {"type": "DT_INT32"}}}, {"name": "StatefulPartitionedCall/functional_1/conv2d_16_1/convolution/ReadVariableOp", "op": "Const", "attr": {"value": {"tensor": {"dtype": "DT_FLOAT", "tensorShape": {"dim": [{"size": "3"}, {"size": "3"}, {"size": "12"}, {"size": "6"}]}}}, "dtype": {"type": "DT_FLOAT"}}}, {"name": "StatefulPartitionedCall/functional_1/conv2d_16_1/Squeeze", "op": "Const", "attr": {"value": {"tensor": {"dtype": "DT_FLOAT", "tensorShape": {"dim": [{"size": "6"}]}}}, "dtype": {"type": "DT_FLOAT"}}}, {"name": "StatefulPartitionedCall/functional_1/conv2d_17_1/convolution/ReadVariableOp", "op": "Const", "attr": {"value": {"tensor": {"dtype": "DT_FLOAT", "tensorShape": {"dim": [{"size": "3"}, {"size": "3"}, {"size": "6"}, {"size": "6"}]}}}, "dtype": {"type": "DT_FLOAT"}}}, {"name": "StatefulPartitionedCall/functional_1/conv2d_17_1/Squeeze", "op": "Const", "attr": {"value": {"tensor": {"dtype": "DT_FLOAT", "tensorShape": {"dim": [{"size": "6"}]}}}, "dtype": {"type": "DT_FLOAT"}}}, {"name": "StatefulPartitionedCall/functional_1/conv2d_18_1/convolution/ReadVariableOp", "op": "Const", "attr": {"value": {"tensor": {"dtype": "DT_FLOAT", "tensorShape": {"dim": [{"size": "3"}, {"size": "3"}, {"size": "6"}, {"size": "3"}]}}}, "dtype": {"type": "DT_FLOAT"}}}, {"name": "StatefulPartitionedCall/functional_1/conv2d_18_1/Squeeze", "op": "Const", "attr": {"value": {"tensor": {"dtype": "DT_FLOAT", "tensorShape": {"dim": [{"size": "3"}]}}}, "dtype": {"type": "DT_FLOAT"}}}, {"name": "input_layer", "op": "Placeholder", "attr": {"shape": {"shape": {"dim": [{"size": "-1"}, {"size": "256"}, {"size": "256"}, {"size": "3"}]}}, "dtype": {"type": "DT_FLOAT"}}}, {"name": "StatefulPartitionedCall/functional_1/conv2d_1/BiasAdd", "op": "_FusedConv2D", "input": ["input_layer", "StatefulPartitionedCall/functional_1/conv2d_1/convolution/ArithmeticOptimizer/FoldMultiplyIntoConv_scaled_StatefulPartitionedCall/functional_1/conv2d_1/convolution_ReadVariableOp", "StatefulPartitionedCall/functional_1/conv2d_1/Squeeze"], "device": "/device:CPU:0", "attr": {"num_host_args": {"i": "0"}, "data_format": {"s": "TkhXQw=="}, "filter_format": {"s": "SFdJTw=="}, "fused_ops": {"list": {"s": ["Qmlhc0FkZA=="]}}, "num_args": {"i": "1"}, "strides": {"list": {"i": ["1", "1", "1", "1"]}}, "TArgs": {"list": {"type": ["DT_FLOAT"]}}, "padding": {"s": "U0FNRQ=="}, "use_cudnn_on_gpu": {"b": true}, "leakyrelu_alpha": {"f": 0.2}, "epsilon": {"f": 0.0}, "T": {"type": "DT_FLOAT"}, "explicit_paddings": {"list": {}}, "dilations": {"list": {"i": ["1", "1", "1", "1"]}}}}, {"name": "StatefulPartitionedCall/functional_1/batch_normalization_1/batchnorm/mul_1", "op": "Mul", "input": ["StatefulPartitionedCall/functional_1/conv2d_1/BiasAdd", "StatefulPartitionedCall/functional_1/batch_normalization_1/batchnorm/mul"], "attr": {"T": {"type": "DT_FLOAT"}}}, {"name": "StatefulPartitionedCall/functional_1/batch_normalization_1/batchnorm/add_1", "op": "AddV2", "input": ["StatefulPartitionedCall/functional_1/batch_normalization_1/batchnorm/mul_1", "StatefulPartitionedCall/functional_1/batch_normalization_1/batchnorm/sub"], "attr": {"T": {"type": "DT_FLOAT"}}}, {"name": "StatefulPartitionedCall/functional_1/activation_1/Relu", "op": "Relu", "input": ["StatefulPartitionedCall/functional_1/batch_normalization_1/batchnorm/add_1"], "attr": {"T": {"type": "DT_FLOAT"}}}, {"name": "StatefulPartitionedCall/functional_1/conv2d_1_2/Relu", "op": "_FusedConv2D", "input": ["StatefulPartitionedCall/functional_1/activation_1/Relu", "StatefulPartitionedCall/functional_1/conv2d_1_2/convolution/ReadVariableOp", "StatefulPartitionedCall/functional_1/conv2d_1_2/Squeeze"], "device": "/device:CPU:0", "attr": {"num_host_args": {"i": "0"}, "data_format": {"s": "TkhXQw=="}, "filter_format": {"s": "SFdJTw=="}, "strides": {"list": {"i": ["1", "1", "1", "1"]}}, "num_args": {"i": "1"}, "fused_ops": {"list": {"s": ["Qmlhc0FkZA==", "UmVsdQ=="]}}, "TArgs": {"list": {"type": ["DT_FLOAT"]}}, "padding": {"s": "U0FNRQ=="}, "use_cudnn_on_gpu": {"b": true}, "leakyrelu_alpha": {"f": 0.2}, "epsilon": {"f": 0.0}, "T": {"type": "DT_FLOAT"}, "explicit_paddings": {"list": {}}, "dilations": {"list": {"i": ["1", "1", "1", "1"]}}}}, {"name": "StatefulPartitionedCall/functional_1/max_pooling2d_1/MaxPool2d", "op": "MaxPool", "input": ["StatefulPartitionedCall/functional_1/conv2d_1_2/Relu"], "attr": {"ksize": {"list": {"i": ["1", "2", "2", "1"]}}, "data_format": {"s": "TkhXQw=="}, "T": {"type": "DT_FLOAT"}, "explicit_paddings": {"list": {}}, "padding": {"s": "VkFMSUQ="}, "strides": {"list": {"i": ["1", "2", "2", "1"]}}}}, {"name": "StatefulPartitionedCall/functional_1/conv2d_2_1/Relu", "op": "_FusedConv2D", "input": ["StatefulPartitionedCall/functional_1/max_pooling2d_1/MaxPool2d", "StatefulPartitionedCall/functional_1/conv2d_2_1/convolution/ReadVariableOp", "StatefulPartitionedCall/functional_1/conv2d_2_1/Squeeze"], "device": "/device:CPU:0", "attr": {"num_host_args": {"i": "0"}, "data_format": {"s": "TkhXQw=="}, "filter_format": {"s": "SFdJTw=="}, "fused_ops": {"list": {"s": ["Qmlhc0FkZA==", "UmVsdQ=="]}}, "num_args": {"i": "1"}, "strides": {"list": {"i": ["1", "1", "1", "1"]}}, "TArgs": {"list": {"type": ["DT_FLOAT"]}}, "padding": {"s": "U0FNRQ=="}, "use_cudnn_on_gpu": {"b": true}, "leakyrelu_alpha": {"f": 0.2}, "epsilon": {"f": 0.0}, "T": {"type": "DT_FLOAT"}, "explicit_paddings": {"list": {}}, "dilations": {"list": {"i": ["1", "1", "1", "1"]}}}}, {"name": "StatefulPartitionedCall/functional_1/conv2d_3_1/Relu", "op": "_FusedConv2D", "input": ["StatefulPartitionedCall/functional_1/conv2d_2_1/Relu", "StatefulPartitionedCall/functional_1/conv2d_3_1/convolution/ReadVariableOp", "StatefulPartitionedCall/functional_1/conv2d_3_1/Squeeze"], "device": "/device:CPU:0", "attr": {"num_host_args": {"i": "0"}, "data_format": {"s": "TkhXQw=="}, "filter_format": {"s": "SFdJTw=="}, "fused_ops": {"list": {"s": ["Qmlhc0FkZA==", "UmVsdQ=="]}}, "num_args": {"i": "1"}, "strides": {"list": {"i": ["1", "1", "1", "1"]}}, "TArgs": {"list": {"type": ["DT_FLOAT"]}}, "padding": {"s": "U0FNRQ=="}, "use_cudnn_on_gpu": {"b": true}, "leakyrelu_alpha": {"f": 0.2}, "epsilon": {"f": 0.0}, "T": {"type": "DT_FLOAT"}, "explicit_paddings": {"list": {}}, "dilations": {"list": {"i": ["1", "1", "1", "1"]}}}}, {"name": "StatefulPartitionedCall/functional_1/max_pooling2d_1_2/MaxPool2d", "op": "MaxPool", "input": ["StatefulPartitionedCall/functional_1/conv2d_3_1/Relu"], "attr": {"ksize": {"list": {"i": ["1", "2", "2", "1"]}}, "data_format": {"s": "TkhXQw=="}, "T": {"type": "DT_FLOAT"}, "explicit_paddings": {"list": {}}, "padding": {"s": "VkFMSUQ="}, "strides": {"list": {"i": ["1", "2", "2", "1"]}}}}, {"name": "StatefulPartitionedCall/functional_1/conv2d_4_1/Relu", "op": "_FusedConv2D", "input": ["StatefulPartitionedCall/functional_1/max_pooling2d_1_2/MaxPool2d", "StatefulPartitionedCall/functional_1/conv2d_4_1/convolution/ReadVariableOp", "StatefulPartitionedCall/functional_1/conv2d_4_1/Squeeze"], "device": "/device:CPU:0", "attr": {"num_host_args": {"i": "0"}, "data_format": {"s": "TkhXQw=="}, "filter_format": {"s": "SFdJTw=="}, "strides": {"list": {"i": ["1", "1", "1", "1"]}}, "num_args": {"i": "1"}, "fused_ops": {"list": {"s": ["Qmlhc0FkZA==", "UmVsdQ=="]}}, "TArgs": {"list": {"type": ["DT_FLOAT"]}}, "padding": {"s": "U0FNRQ=="}, "use_cudnn_on_gpu": {"b": true}, "leakyrelu_alpha": {"f": 0.2}, "epsilon": {"f": 0.0}, "T": {"type": "DT_FLOAT"}, "explicit_paddings": {"list": {}}, "dilations": {"list": {"i": ["1", "1", "1", "1"]}}}}, {"name": "StatefulPartitionedCall/functional_1/conv2d_5_1/Relu", "op": "_FusedConv2D", "input": ["StatefulPartitionedCall/functional_1/conv2d_4_1/Relu", "StatefulPartitionedCall/functional_1/conv2d_5_1/convolution/ReadVariableOp", "StatefulPartitionedCall/functional_1/conv2d_5_1/Squeeze"], "device": "/device:CPU:0", "attr": {"num_host_args": {"i": "0"}, "data_format": {"s": "TkhXQw=="}, "filter_format": {"s": "SFdJTw=="}, "fused_ops": {"list": {"s": ["Qmlhc0FkZA==", "UmVsdQ=="]}}, "num_args": {"i": "1"}, "strides": {"list": {"i": ["1", "1", "1", "1"]}}, "TArgs": {"list": {"type": ["DT_FLOAT"]}}, "padding": {"s": "U0FNRQ=="}, "use_cudnn_on_gpu": {"b": true}, "leakyrelu_alpha": {"f": 0.2}, "epsilon": {"f": 0.0}, "T": {"type": "DT_FLOAT"}, "explicit_paddings": {"list": {}}, "dilations": {"list": {"i": ["1", "1", "1", "1"]}}}}, {"name": "StatefulPartitionedCall/functional_1/max_pooling2d_2_1/MaxPool2d", "op": "MaxPool", "input": ["StatefulPartitionedCall/functional_1/conv2d_5_1/Relu"], "attr": {"padding": {"s": "VkFMSUQ="}, "data_format": {"s": "TkhXQw=="}, "T": {"type": "DT_FLOAT"}, "explicit_paddings": {"list": {}}, "ksize": {"list": {"i": ["1", "2", "2", "1"]}}, "strides": {"list": {"i": ["1", "2", "2", "1"]}}}}, {"name": "StatefulPartitionedCall/functional_1/conv2d_6_1/Relu", "op": "_FusedConv2D", "input": ["StatefulPartitionedCall/functional_1/max_pooling2d_2_1/MaxPool2d", "StatefulPartitionedCall/functional_1/conv2d_6_1/convolution/ReadVariableOp", "StatefulPartitionedCall/functional_1/conv2d_6_1/Squeeze"], "device": "/device:CPU:0", "attr": {"num_host_args": {"i": "0"}, "data_format": {"s": "TkhXQw=="}, "filter_format": {"s": "SFdJTw=="}, "fused_ops": {"list": {"s": ["Qmlhc0FkZA==", "UmVsdQ=="]}}, "num_args": {"i": "1"}, "strides": {"list": {"i": ["1", "1", "1", "1"]}}, "TArgs": {"list": {"type": ["DT_FLOAT"]}}, "padding": {"s": "U0FNRQ=="}, "use_cudnn_on_gpu": {"b": true}, "leakyrelu_alpha": {"f": 0.2}, "epsilon": {"f": 0.0}, "T": {"type": "DT_FLOAT"}, "explicit_paddings": {"list": {}}, "dilations": {"list": {"i": ["1", "1", "1", "1"]}}}}, {"name": "StatefulPartitionedCall/functional_1/conv2d_7_1/Relu", "op": "_FusedConv2D", "input": ["StatefulPartitionedCall/functional_1/conv2d_6_1/Relu", "StatefulPartitionedCall/functional_1/conv2d_7_1/convolution/ReadVariableOp", "StatefulPartitionedCall/functional_1/conv2d_7_1/Squeeze"], "device": "/device:CPU:0", "attr": {"num_host_args": {"i": "0"}, "data_format": {"s": "TkhXQw=="}, "filter_format": {"s": "SFdJTw=="}, "fused_ops": {"list": {"s": ["Qmlhc0FkZA==", "UmVsdQ=="]}}, "num_args": {"i": "1"}, "strides": {"list": {"i": ["1", "1", "1", "1"]}}, "TArgs": {"list": {"type": ["DT_FLOAT"]}}, "padding": {"s": "U0FNRQ=="}, "use_cudnn_on_gpu": {"b": true}, "leakyrelu_alpha": {"f": 0.2}, "epsilon": {"f": 0.0}, "T": {"type": "DT_FLOAT"}, "explicit_paddings": {"list": {}}, "dilations": {"list": {"i": ["1", "1", "1", "1"]}}}}, {"name": "StatefulPartitionedCall/functional_1/max_pooling2d_3_1/MaxPool2d", "op": "MaxPool", "input": ["StatefulPartitionedCall/functional_1/conv2d_7_1/Relu"], "attr": {"ksize": {"list": {"i": ["1", "2", "2", "1"]}}, "data_format": {"s": "TkhXQw=="}, "T": {"type": "DT_FLOAT"}, "explicit_paddings": {"list": {}}, "padding": {"s": "VkFMSUQ="}, "strides": {"list": {"i": ["1", "2", "2", "1"]}}}}, {"name": "StatefulPartitionedCall/functional_1/conv2d_8_1/Relu", "op": "_FusedConv2D", "input": ["StatefulPartitionedCall/functional_1/max_pooling2d_3_1/MaxPool2d", "StatefulPartitionedCall/functional_1/conv2d_8_1/convolution/ReadVariableOp", "StatefulPartitionedCall/functional_1/conv2d_8_1/Squeeze"], "device": "/device:CPU:0", "attr": {"num_host_args": {"i": "0"}, "data_format": {"s": "TkhXQw=="}, "filter_format": {"s": "SFdJTw=="}, "fused_ops": {"list": {"s": ["Qmlhc0FkZA==", "UmVsdQ=="]}}, "num_args": {"i": "1"}, "strides": {"list": {"i": ["1", "1", "1", "1"]}}, "TArgs": {"list": {"type": ["DT_FLOAT"]}}, "padding": {"s": "U0FNRQ=="}, "use_cudnn_on_gpu": {"b": true}, "leakyrelu_alpha": {"f": 0.2}, "epsilon": {"f": 0.0}, "T": {"type": "DT_FLOAT"}, "explicit_paddings": {"list": {}}, "dilations": {"list": {"i": ["1", "1", "1", "1"]}}}}, {"name": "StatefulPartitionedCall/functional_1/conv2d_9_1/Relu", "op": "_FusedConv2D", "input": ["StatefulPartitionedCall/functional_1/conv2d_8_1/Relu", "StatefulPartitionedCall/functional_1/conv2d_9_1/convolution/ReadVariableOp", "StatefulPartitionedCall/functional_1/conv2d_9_1/Squeeze"], "device": "/device:CPU:0", "attr": {"num_host_args": {"i": "0"}, "data_format": {"s": "TkhXQw=="}, "filter_format": {"s": "SFdJTw=="}, "strides": {"list": {"i": ["1", "1", "1", "1"]}}, "num_args": {"i": "1"}, "fused_ops": {"list": {"s": ["Qmlhc0FkZA==", "UmVsdQ=="]}}, "TArgs": {"list": {"type": ["DT_FLOAT"]}}, "padding": {"s": "U0FNRQ=="}, "use_cudnn_on_gpu": {"b": true}, "leakyrelu_alpha": {"f": 0.2}, "epsilon": {"f": 0.0}, "T": {"type": "DT_FLOAT"}, "explicit_paddings": {"list": {}}, "dilations": {"list": {"i": ["1", "1", "1", "1"]}}}}, {"name": "StatefulPartitionedCall/functional_1/conv2d_transpose_1/Shape", "op": "Shape", "input": ["StatefulPartitionedCall/functional_1/conv2d_9_1/Relu"], "attr": {"T": {"type": "DT_FLOAT"}, "out_type": {"type": "DT_INT32"}}, "experimentalType": {"typeId": "TFT_PRODUCT", "args": [{"typeId": "TFT_SHAPE_TENSOR", "args": [{"typeId": "TFT_INT32"}]}]}}, {"name": "StatefulPartitionedCall/functional_1/conv2d_transpose_1/strided_slice", "op": "StridedSlice", "input": ["StatefulPartitionedCall/functional_1/conv2d_transpose_1/Shape", "StatefulPartitionedCall/functional_1/conv2d_transpose_1/strided_slice/stack", "StatefulPartitionedCall/functional_1/conv2d_transpose_1/strided_slice/stack_1", "StatefulPartitionedCall/functional_1/conv2d_transpose_1/strided_slice/stack_2"], "attr": {"shrink_axis_mask": {"i": "1"}, "new_axis_mask": {"i": "0"}, "Index": {"type": "DT_INT32"}, "begin_mask": {"i": "0"}, "end_mask": {"i": "0"}, "T": {"type": "DT_INT32"}, "ellipsis_mask": {"i": "0"}}}, {"name": "StatefulPartitionedCall/functional_1/conv2d_transpose_1/conv_transpose/input_sizes", "op": "Pack", "input": ["StatefulPartitionedCall/functional_1/conv2d_transpose_1/strided_slice", "StatefulPartitionedCall/functional_1/conv2d_transpose_1/conv_transpose/input_sizes/1", "StatefulPartitionedCall/functional_1/conv2d_transpose_1/conv_transpose/input_sizes/2", "StatefulPartitionedCall/functional_1/conv2d_transpose_1/conv_transpose/input_sizes/3"], "attr": {"N": {"i": "4"}, "axis": {"i": "0"}, "T": {"type": "DT_INT32"}}}, {"name": "StatefulPartitionedCall/functional_1/conv2d_transpose_1/conv_transpose", "op": "Conv2DBackpropInput", "input": ["StatefulPartitionedCall/functional_1/conv2d_transpose_1/conv_transpose/input_sizes", "StatefulPartitionedCall/functional_1/conv2d_transpose_1/conv_transpose/ReadVariableOp", "StatefulPartitionedCall/functional_1/conv2d_9_1/Relu"], "attr": {"padding": {"s": "U0FNRQ=="}, "data_format": {"s": "TkhXQw=="}, "strides": {"list": {"i": ["1", "2", "2", "1"]}}, "use_cudnn_on_gpu": {"b": true}, "T": {"type": "DT_FLOAT"}, "explicit_paddings": {"list": {}}, "dilations": {"list": {"i": ["1", "1", "1", "1"]}}}}, {"name": "StatefulPartitionedCall/functional_1/conv2d_transpose_1/BiasAdd", "op": "BiasAdd", "input": ["StatefulPartitionedCall/functional_1/conv2d_transpose_1/conv_transpose", "StatefulPartitionedCall/functional_1/conv2d_transpose_1/Squeeze"], "attr": {"data_format": {"s": "TkhXQw=="}, "T": {"type": "DT_FLOAT"}}}, {"name": "StatefulPartitionedCall/functional_1/concatenate_1/concat", "op": "ConcatV2", "input": ["StatefulPartitionedCall/functional_1/conv2d_transpose_1/BiasAdd", "StatefulPartitionedCall/functional_1/conv2d_7_1/Relu", "StatefulPartitionedCall/functional_1/concatenate_1/concat/axis"], "attr": {"N": {"i": "2"}, "T": {"type": "DT_FLOAT"}, "Tidx": {"type": "DT_INT32"}}}, {"name": "StatefulPartitionedCall/functional_1/conv2d_10_1/Relu", "op": "_FusedConv2D", "input": ["StatefulPartitionedCall/functional_1/concatenate_1/concat", "StatefulPartitionedCall/functional_1/conv2d_10_1/convolution/ReadVariableOp", "StatefulPartitionedCall/functional_1/conv2d_10_1/Squeeze"], "device": "/device:CPU:0", "attr": {"num_host_args": {"i": "0"}, "data_format": {"s": "TkhXQw=="}, "filter_format": {"s": "SFdJTw=="}, "fused_ops": {"list": {"s": ["Qmlhc0FkZA==", "UmVsdQ=="]}}, "num_args": {"i": "1"}, "strides": {"list": {"i": ["1", "1", "1", "1"]}}, "TArgs": {"list": {"type": ["DT_FLOAT"]}}, "padding": {"s": "U0FNRQ=="}, "use_cudnn_on_gpu": {"b": true}, "leakyrelu_alpha": {"f": 0.2}, "epsilon": {"f": 0.0}, "T": {"type": "DT_FLOAT"}, "explicit_paddings": {"list": {}}, "dilations": {"list": {"i": ["1", "1", "1", "1"]}}}}, {"name": "StatefulPartitionedCall/functional_1/conv2d_11_1/Relu", "op": "_FusedConv2D", "input": ["StatefulPartitionedCall/functional_1/conv2d_10_1/Relu", "StatefulPartitionedCall/functional_1/conv2d_11_1/convolution/ReadVariableOp", "StatefulPartitionedCall/functional_1/conv2d_11_1/Squeeze"], "device": "/device:CPU:0", "attr": {"num_host_args": {"i": "0"}, "data_format": {"s": "TkhXQw=="}, "filter_format": {"s": "SFdJTw=="}, "strides": {"list": {"i": ["1", "1", "1", "1"]}}, "num_args": {"i": "1"}, "fused_ops": {"list": {"s": ["Qmlhc0FkZA==", "UmVsdQ=="]}}, "TArgs": {"list": {"type": ["DT_FLOAT"]}}, "padding": {"s": "U0FNRQ=="}, "use_cudnn_on_gpu": {"b": true}, "leakyrelu_alpha": {"f": 0.2}, "epsilon": {"f": 0.0}, "T": {"type": "DT_FLOAT"}, "explicit_paddings": {"list": {}}, "dilations": {"list": {"i": ["1", "1", "1", "1"]}}}}, {"name": "StatefulPartitionedCall/functional_1/conv2d_transpose_1_2/Shape", "op": "Shape", "input": ["StatefulPartitionedCall/functional_1/conv2d_11_1/Relu"], "attr": {"T": {"type": "DT_FLOAT"}, "out_type": {"type": "DT_INT32"}}, "experimentalType": {"typeId": "TFT_PRODUCT", "args": [{"typeId": "TFT_SHAPE_TENSOR", "args": [{"typeId": "TFT_INT32"}]}]}}, {"name": "StatefulPartitionedCall/functional_1/conv2d_transpose_1_2/strided_slice", "op": "StridedSlice", "input": ["StatefulPartitionedCall/functional_1/conv2d_transpose_1_2/Shape", "StatefulPartitionedCall/functional_1/conv2d_transpose_1_2/strided_slice/stack", "StatefulPartitionedCall/functional_1/conv2d_transpose_1_2/strided_slice/stack_1", "StatefulPartitionedCall/functional_1/conv2d_transpose_1_2/strided_slice/stack_2"], "attr": {"shrink_axis_mask": {"i": "1"}, "Index": {"type": "DT_INT32"}, "new_axis_mask": {"i": "0"}, "begin_mask": {"i": "0"}, "end_mask": {"i": "0"}, "T": {"type": "DT_INT32"}, "ellipsis_mask": {"i": "0"}}}, {"name": "StatefulPartitionedCall/functional_1/conv2d_transpose_1_2/conv_transpose/input_sizes", "op": "Pack", "input": ["StatefulPartitionedCall/functional_1/conv2d_transpose_1_2/strided_slice", "StatefulPartitionedCall/functional_1/conv2d_transpose_1_2/conv_transpose/input_sizes/1", "StatefulPartitionedCall/functional_1/conv2d_transpose_1_2/conv_transpose/input_sizes/2", "StatefulPartitionedCall/functional_1/conv2d_transpose_1_2/conv_transpose/input_sizes/3"], "attr": {"N": {"i": "4"}, "axis": {"i": "0"}, "T": {"type": "DT_INT32"}}}, {"name": "StatefulPartitionedCall/functional_1/conv2d_transpose_1_2/conv_transpose", "op": "Conv2DBackpropInput", "input": ["StatefulPartitionedCall/functional_1/conv2d_transpose_1_2/conv_transpose/input_sizes", "StatefulPartitionedCall/functional_1/conv2d_transpose_1_2/conv_transpose/ReadVariableOp", "StatefulPartitionedCall/functional_1/conv2d_11_1/Relu"], "attr": {"padding": {"s": "U0FNRQ=="}, "data_format": {"s": "TkhXQw=="}, "strides": {"list": {"i": ["1", "2", "2", "1"]}}, "use_cudnn_on_gpu": {"b": true}, "T": {"type": "DT_FLOAT"}, "explicit_paddings": {"list": {}}, "dilations": {"list": {"i": ["1", "1", "1", "1"]}}}}, {"name": "StatefulPartitionedCall/functional_1/conv2d_transpose_1_2/BiasAdd", "op": "BiasAdd", "input": ["StatefulPartitionedCall/functional_1/conv2d_transpose_1_2/conv_transpose", "StatefulPartitionedCall/functional_1/conv2d_transpose_1_2/Squeeze"], "attr": {"data_format": {"s": "TkhXQw=="}, "T": {"type": "DT_FLOAT"}}}, {"name": "StatefulPartitionedCall/functional_1/concatenate_1_2/concat", "op": "ConcatV2", "input": ["StatefulPartitionedCall/functional_1/conv2d_transpose_1_2/BiasAdd", "StatefulPartitionedCall/functional_1/conv2d_5_1/Relu", "StatefulPartitionedCall/functional_1/concatenate_1_2/concat/axis"], "attr": {"N": {"i": "2"}, "T": {"type": "DT_FLOAT"}, "Tidx": {"type": "DT_INT32"}}}, {"name": "StatefulPartitionedCall/functional_1/conv2d_12_1/Relu", "op": "_FusedConv2D", "input": ["StatefulPartitionedCall/functional_1/concatenate_1_2/concat", "StatefulPartitionedCall/functional_1/conv2d_12_1/convolution/ReadVariableOp", "StatefulPartitionedCall/functional_1/conv2d_12_1/Squeeze"], "device": "/device:CPU:0", "attr": {"num_host_args": {"i": "0"}, "data_format": {"s": "TkhXQw=="}, "filter_format": {"s": "SFdJTw=="}, "strides": {"list": {"i": ["1", "1", "1", "1"]}}, "num_args": {"i": "1"}, "fused_ops": {"list": {"s": ["Qmlhc0FkZA==", "UmVsdQ=="]}}, "TArgs": {"list": {"type": ["DT_FLOAT"]}}, "padding": {"s": "U0FNRQ=="}, "use_cudnn_on_gpu": {"b": true}, "leakyrelu_alpha": {"f": 0.2}, "epsilon": {"f": 0.0}, "T": {"type": "DT_FLOAT"}, "explicit_paddings": {"list": {}}, "dilations": {"list": {"i": ["1", "1", "1", "1"]}}}}, {"name": "StatefulPartitionedCall/functional_1/conv2d_13_1/Relu", "op": "_FusedConv2D", "input": ["StatefulPartitionedCall/functional_1/conv2d_12_1/Relu", "StatefulPartitionedCall/functional_1/conv2d_13_1/convolution/ReadVariableOp", "StatefulPartitionedCall/functional_1/conv2d_13_1/Squeeze"], "device": "/device:CPU:0", "attr": {"num_host_args": {"i": "0"}, "data_format": {"s": "TkhXQw=="}, "filter_format": {"s": "SFdJTw=="}, "fused_ops": {"list": {"s": ["Qmlhc0FkZA==", "UmVsdQ=="]}}, "num_args": {"i": "1"}, "strides": {"list": {"i": ["1", "1", "1", "1"]}}, "TArgs": {"list": {"type": ["DT_FLOAT"]}}, "padding": {"s": "U0FNRQ=="}, "use_cudnn_on_gpu": {"b": true}, "leakyrelu_alpha": {"f": 0.2}, "epsilon": {"f": 0.0}, "T": {"type": "DT_FLOAT"}, "explicit_paddings": {"list": {}}, "dilations": {"list": {"i": ["1", "1", "1", "1"]}}}}, {"name": "StatefulPartitionedCall/functional_1/conv2d_transpose_2_1/Shape", "op": "Shape", "input": ["StatefulPartitionedCall/functional_1/conv2d_13_1/Relu"], "attr": {"T": {"type": "DT_FLOAT"}, "out_type": {"type": "DT_INT32"}}, "experimentalType": {"typeId": "TFT_PRODUCT", "args": [{"typeId": "TFT_SHAPE_TENSOR", "args": [{"typeId": "TFT_INT32"}]}]}}, {"name": "StatefulPartitionedCall/functional_1/conv2d_transpose_2_1/strided_slice", "op": "StridedSlice", "input": ["StatefulPartitionedCall/functional_1/conv2d_transpose_2_1/Shape", "StatefulPartitionedCall/functional_1/conv2d_transpose_2_1/strided_slice/stack", "StatefulPartitionedCall/functional_1/conv2d_transpose_2_1/strided_slice/stack_1", "StatefulPartitionedCall/functional_1/conv2d_transpose_2_1/strided_slice/stack_2"], "attr": {"shrink_axis_mask": {"i": "1"}, "new_axis_mask": {"i": "0"}, "Index": {"type": "DT_INT32"}, "begin_mask": {"i": "0"}, "end_mask": {"i": "0"}, "T": {"type": "DT_INT32"}, "ellipsis_mask": {"i": "0"}}}, {"name": "StatefulPartitionedCall/functional_1/conv2d_transpose_2_1/conv_transpose/input_sizes", "op": "Pack", "input": ["StatefulPartitionedCall/functional_1/conv2d_transpose_2_1/strided_slice", "StatefulPartitionedCall/functional_1/conv2d_transpose_2_1/conv_transpose/input_sizes/1", "StatefulPartitionedCall/functional_1/conv2d_transpose_2_1/conv_transpose/input_sizes/2", "StatefulPartitionedCall/functional_1/conv2d_transpose_2_1/conv_transpose/input_sizes/3"], "attr": {"N": {"i": "4"}, "axis": {"i": "0"}, "T": {"type": "DT_INT32"}}}, {"name": "StatefulPartitionedCall/functional_1/conv2d_transpose_2_1/conv_transpose", "op": "Conv2DBackpropInput", "input": ["StatefulPartitionedCall/functional_1/conv2d_transpose_2_1/conv_transpose/input_sizes", "StatefulPartitionedCall/functional_1/conv2d_transpose_2_1/conv_transpose/ReadVariableOp", "StatefulPartitionedCall/functional_1/conv2d_13_1/Relu"], "attr": {"padding": {"s": "U0FNRQ=="}, "data_format": {"s": "TkhXQw=="}, "use_cudnn_on_gpu": {"b": true}, "strides": {"list": {"i": ["1", "2", "2", "1"]}}, "T": {"type": "DT_FLOAT"}, "explicit_paddings": {"list": {}}, "dilations": {"list": {"i": ["1", "1", "1", "1"]}}}}, {"name": "StatefulPartitionedCall/functional_1/conv2d_transpose_2_1/BiasAdd", "op": "BiasAdd", "input": ["StatefulPartitionedCall/functional_1/conv2d_transpose_2_1/conv_transpose", "StatefulPartitionedCall/functional_1/conv2d_transpose_2_1/Squeeze"], "attr": {"data_format": {"s": "TkhXQw=="}, "T": {"type": "DT_FLOAT"}}}, {"name": "StatefulPartitionedCall/functional_1/concatenate_2_1/concat", "op": "ConcatV2", "input": ["StatefulPartitionedCall/functional_1/conv2d_transpose_2_1/BiasAdd", "StatefulPartitionedCall/functional_1/conv2d_3_1/Relu", "StatefulPartitionedCall/functional_1/concatenate_2_1/concat/axis"], "attr": {"N": {"i": "2"}, "T": {"type": "DT_FLOAT"}, "Tidx": {"type": "DT_INT32"}}}, {"name": "StatefulPartitionedCall/functional_1/conv2d_14_1/Relu", "op": "_FusedConv2D", "input": ["StatefulPartitionedCall/functional_1/concatenate_2_1/concat", "StatefulPartitionedCall/functional_1/conv2d_14_1/convolution/ReadVariableOp", "StatefulPartitionedCall/functional_1/conv2d_14_1/Squeeze"], "device": "/device:CPU:0", "attr": {"num_host_args": {"i": "0"}, "data_format": {"s": "TkhXQw=="}, "filter_format": {"s": "SFdJTw=="}, "fused_ops": {"list": {"s": ["Qmlhc0FkZA==", "UmVsdQ=="]}}, "num_args": {"i": "1"}, "strides": {"list": {"i": ["1", "1", "1", "1"]}}, "TArgs": {"list": {"type": ["DT_FLOAT"]}}, "padding": {"s": "U0FNRQ=="}, "use_cudnn_on_gpu": {"b": true}, "leakyrelu_alpha": {"f": 0.2}, "epsilon": {"f": 0.0}, "T": {"type": "DT_FLOAT"}, "explicit_paddings": {"list": {}}, "dilations": {"list": {"i": ["1", "1", "1", "1"]}}}}, {"name": "StatefulPartitionedCall/functional_1/conv2d_15_1/Relu", "op": "_FusedConv2D", "input": ["StatefulPartitionedCall/functional_1/conv2d_14_1/Relu", "StatefulPartitionedCall/functional_1/conv2d_15_1/convolution/ReadVariableOp", "StatefulPartitionedCall/functional_1/conv2d_15_1/Squeeze"], "device": "/device:CPU:0", "attr": {"num_host_args": {"i": "0"}, "data_format": {"s": "TkhXQw=="}, "filter_format": {"s": "SFdJTw=="}, "fused_ops": {"list": {"s": ["Qmlhc0FkZA==", "UmVsdQ=="]}}, "num_args": {"i": "1"}, "strides": {"list": {"i": ["1", "1", "1", "1"]}}, "TArgs": {"list": {"type": ["DT_FLOAT"]}}, "padding": {"s": "U0FNRQ=="}, "use_cudnn_on_gpu": {"b": true}, "leakyrelu_alpha": {"f": 0.2}, "epsilon": {"f": 0.0}, "T": {"type": "DT_FLOAT"}, "explicit_paddings": {"list": {}}, "dilations": {"list": {"i": ["1", "1", "1", "1"]}}}}, {"name": "StatefulPartitionedCall/functional_1/conv2d_transpose_3_1/Shape", "op": "Shape", "input": ["StatefulPartitionedCall/functional_1/conv2d_15_1/Relu"], "attr": {"T": {"type": "DT_FLOAT"}, "out_type": {"type": "DT_INT32"}}, "experimentalType": {"typeId": "TFT_PRODUCT", "args": [{"typeId": "TFT_SHAPE_TENSOR", "args": [{"typeId": "TFT_INT32"}]}]}}, {"name": "StatefulPartitionedCall/functional_1/conv2d_transpose_3_1/strided_slice", "op": "StridedSlice", "input": ["StatefulPartitionedCall/functional_1/conv2d_transpose_3_1/Shape", "StatefulPartitionedCall/functional_1/conv2d_transpose_3_1/strided_slice/stack", "StatefulPartitionedCall/functional_1/conv2d_transpose_3_1/strided_slice/stack_1", "StatefulPartitionedCall/functional_1/conv2d_transpose_3_1/strided_slice/stack_2"], "attr": {"shrink_axis_mask": {"i": "1"}, "Index": {"type": "DT_INT32"}, "new_axis_mask": {"i": "0"}, "begin_mask": {"i": "0"}, "T": {"type": "DT_INT32"}, "end_mask": {"i": "0"}, "ellipsis_mask": {"i": "0"}}}, {"name": "StatefulPartitionedCall/functional_1/conv2d_transpose_3_1/conv_transpose/input_sizes", "op": "Pack", "input": ["StatefulPartitionedCall/functional_1/conv2d_transpose_3_1/strided_slice", "StatefulPartitionedCall/functional_1/conv2d_transpose_3_1/conv_transpose/input_sizes/1", "StatefulPartitionedCall/functional_1/conv2d_transpose_3_1/conv_transpose/input_sizes/2", "StatefulPartitionedCall/functional_1/conv2d_transpose_3_1/conv_transpose/input_sizes/3"], "attr": {"N": {"i": "4"}, "axis": {"i": "0"}, "T": {"type": "DT_INT32"}}}, {"name": "StatefulPartitionedCall/functional_1/conv2d_transpose_3_1/conv_transpose", "op": "Conv2DBackpropInput", "input": ["StatefulPartitionedCall/functional_1/conv2d_transpose_3_1/conv_transpose/input_sizes", "StatefulPartitionedCall/functional_1/conv2d_transpose_3_1/conv_transpose/ReadVariableOp", "StatefulPartitionedCall/functional_1/conv2d_15_1/Relu"], "attr": {"padding": {"s": "U0FNRQ=="}, "data_format": {"s": "TkhXQw=="}, "strides": {"list": {"i": ["1", "2", "2", "1"]}}, "use_cudnn_on_gpu": {"b": true}, "T": {"type": "DT_FLOAT"}, "explicit_paddings": {"list": {}}, "dilations": {"list": {"i": ["1", "1", "1", "1"]}}}}, {"name": "StatefulPartitionedCall/functional_1/conv2d_transpose_3_1/BiasAdd", "op": "BiasAdd", "input": ["StatefulPartitionedCall/functional_1/conv2d_transpose_3_1/conv_transpose", "StatefulPartitionedCall/functional_1/conv2d_transpose_3_1/Squeeze"], "attr": {"data_format": {"s": "TkhXQw=="}, "T": {"type": "DT_FLOAT"}}}, {"name": "StatefulPartitionedCall/functional_1/concatenate_3_1/concat", "op": "ConcatV2", "input": ["StatefulPartitionedCall/functional_1/conv2d_transpose_3_1/BiasAdd", "StatefulPartitionedCall/functional_1/conv2d_1_2/Relu", "StatefulPartitionedCall/functional_1/concatenate_3_1/concat/axis"], "attr": {"N": {"i": "2"}, "T": {"type": "DT_FLOAT"}, "Tidx": {"type": "DT_INT32"}}}, {"name": "StatefulPartitionedCall/functional_1/conv2d_16_1/Relu", "op": "_FusedConv2D", "input": ["StatefulPartitionedCall/functional_1/concatenate_3_1/concat", "StatefulPartitionedCall/functional_1/conv2d_16_1/convolution/ReadVariableOp", "StatefulPartitionedCall/functional_1/conv2d_16_1/Squeeze"], "device": "/device:CPU:0", "attr": {"num_host_args": {"i": "0"}, "data_format": {"s": "TkhXQw=="}, "filter_format": {"s": "SFdJTw=="}, "strides": {"list": {"i": ["1", "1", "1", "1"]}}, "num_args": {"i": "1"}, "fused_ops": {"list": {"s": ["Qmlhc0FkZA==", "UmVsdQ=="]}}, "TArgs": {"list": {"type": ["DT_FLOAT"]}}, "padding": {"s": "U0FNRQ=="}, "use_cudnn_on_gpu": {"b": true}, "leakyrelu_alpha": {"f": 0.2}, "epsilon": {"f": 0.0}, "T": {"type": "DT_FLOAT"}, "explicit_paddings": {"list": {}}, "dilations": {"list": {"i": ["1", "1", "1", "1"]}}}}, {"name": "StatefulPartitionedCall/functional_1/conv2d_17_1/Relu", "op": "_FusedConv2D", "input": ["StatefulPartitionedCall/functional_1/conv2d_16_1/Relu", "StatefulPartitionedCall/functional_1/conv2d_17_1/convolution/ReadVariableOp", "StatefulPartitionedCall/functional_1/conv2d_17_1/Squeeze"], "device": "/device:CPU:0", "attr": {"num_host_args": {"i": "0"}, "data_format": {"s": "TkhXQw=="}, "filter_format": {"s": "SFdJTw=="}, "strides": {"list": {"i": ["1", "1", "1", "1"]}}, "num_args": {"i": "1"}, "fused_ops": {"list": {"s": ["Qmlhc0FkZA==", "UmVsdQ=="]}}, "TArgs": {"list": {"type": ["DT_FLOAT"]}}, "padding": {"s": "U0FNRQ=="}, "use_cudnn_on_gpu": {"b": true}, "leakyrelu_alpha": {"f": 0.2}, "epsilon": {"f": 0.0}, "T": {"type": "DT_FLOAT"}, "explicit_paddings": {"list": {}}, "dilations": {"list": {"i": ["1", "1", "1", "1"]}}}}, {"name": "StatefulPartitionedCall/functional_1/conv2d_18_1/BiasAdd", "op": "_FusedConv2D", "input": ["StatefulPartitionedCall/functional_1/conv2d_17_1/Relu", "StatefulPartitionedCall/functional_1/conv2d_18_1/convolution/ReadVariableOp", "StatefulPartitionedCall/functional_1/conv2d_18_1/Squeeze"], "device": "/device:CPU:0", "attr": {"num_host_args": {"i": "0"}, "data_format": {"s": "TkhXQw=="}, "filter_format": {"s": "SFdJTw=="}, "fused_ops": {"list": {"s": ["Qmlhc0FkZA=="]}}, "num_args": {"i": "1"}, "strides": {"list": {"i": ["1", "1", "1", "1"]}}, "TArgs": {"list": {"type": ["DT_FLOAT"]}}, "padding": {"s": "U0FNRQ=="}, "use_cudnn_on_gpu": {"b": true}, "leakyrelu_alpha": {"f": 0.2}, "epsilon": {"f": 0.0}, "T": {"type": "DT_FLOAT"}, "explicit_paddings": {"list": {}}, "dilations": {"list": {"i": ["1", "1", "1", "1"]}}}}, {"name": "StatefulPartitionedCall/functional_1/conv2d_18_1/Softmax", "op": "Softmax", "input": ["StatefulPartitionedCall/functional_1/conv2d_18_1/BiasAdd"], "attr": {"T": {"type": "DT_FLOAT"}}}, {"name": "Identity", "op": "Identity", "input": ["StatefulPartitionedCall/functional_1/conv2d_18_1/Softmax"], "attr": {"T": {"type": "DT_FLOAT"}}}], "library": {}, "versions": {"producer": 2129}}, "weightsManifest": [{"paths": ["group1-shard1of1.bin"], "weights": [{"name": "StatefulPartitionedCall/functional_1/conv2d_transpose_3_1/strided_slice/stack", "shape": [1], "dtype": "int32"}, {"name": "StatefulPartitionedCall/functional_1/conv2d_transpose_3_1/strided_slice/stack_1", "shape": [1], "dtype": "int32"}, {"name": "StatefulPartitionedCall/functional_1/conv2d_transpose_3_1/strided_slice/stack_2", "shape": [1], "dtype": "int32"}, {"name": "StatefulPartitionedCall/functional_1/conv2d_transpose_3_1/conv_transpose/input_sizes/1", "shape": [], "dtype": "int32"}, {"name": "StatefulPartitionedCall/functional_1/conv2d_transpose_3_1/conv_transpose/input_sizes/2", "shape": [], "dtype": "int32"}, {"name": "StatefulPartitionedCall/functional_1/conv2d_transpose_3_1/conv_transpose/input_sizes/3", "shape": [], "dtype": "int32"}, {"name": "StatefulPartitionedCall/functional_1/conv2d_transpose_3_1/conv_transpose/ReadVariableOp", "shape": [2, 2, 6, 8], "dtype": "float32"}, {"name": "StatefulPartitionedCall/functional_1/conv2d_transpose_2_1/strided_slice/stack", "shape": [1], "dtype": "int32"}, {"name": "StatefulPartitionedCall/functional_1/conv2d_transpose_2_1/strided_slice/stack_1", "shape": [1], "dtype": "int32"}, {"name": "StatefulPartitionedCall/functional_1/conv2d_transpose_2_1/strided_slice/stack_2", "shape": [1], "dtype": "int32"}, {"name": "StatefulPartitionedCall/functional_1/conv2d_transpose_2_1/conv_transpose/input_sizes/1", "shape": [], "dtype": "int32"}, {"name": "StatefulPartitionedCall/functional_1/conv2d_transpose_2_1/conv_transpose/input_sizes/2", "shape": [], "dtype": "int32"}, {"name": "StatefulPartitionedCall/functional_1/conv2d_transpose_2_1/conv_transpose/input_sizes/3", "shape": [], "dtype": "int32"}, {"name": "StatefulPartitionedCall/functional_1/conv2d_transpose_2_1/conv_transpose/ReadVariableOp", "shape": [2, 2, 8, 10], "dtype": "float32"}, {"name": "StatefulPartitionedCall/functional_1/conv2d_transpose_1_2/strided_slice/stack", "shape": [1], "dtype": "int32"}, {"name": "StatefulPartitionedCall/functional_1/conv2d_transpose_1_2/strided_slice/stack_1", "shape": [1], "dtype": "int32"}, {"name": "StatefulPartitionedCall/functional_1/conv2d_transpose_1_2/strided_slice/stack_2", "shape": [1], "dtype": "int32"}, {"name": "StatefulPartitionedCall/functional_1/conv2d_transpose_1_2/conv_transpose/input_sizes/1", "shape": [], "dtype": "int32"}, {"name": "StatefulPartitionedCall/functional_1/conv2d_transpose_1_2/conv_transpose/input_sizes/2", "shape": [], "dtype": "int32"}, {"name": "StatefulPartitionedCall/functional_1/conv2d_transpose_1_2/conv_transpose/input_sizes/3", "shape": [], "dtype": "int32"}, {"name": "StatefulPartitionedCall/functional_1/conv2d_transpose_1_2/conv_transpose/ReadVariableOp", "shape": [2, 2, 10, 12], "dtype": "float32"}, {"name": "StatefulPartitionedCall/functional_1/conv2d_transpose_1/strided_slice/stack", "shape": [1], "dtype": "int32"}, {"name": "StatefulPartitionedCall/functional_1/conv2d_transpose_1/strided_slice/stack_1", "shape": [1], "dtype": "int32"}, {"name": "StatefulPartitionedCall/functional_1/conv2d_transpose_1/strided_slice/stack_2", "shape": [1], "dtype": "int32"}, {"name": "StatefulPartitionedCall/functional_1/conv2d_transpose_1/conv_transpose/input_sizes/1", "shape": [], "dtype": "int32"}, {"name": "StatefulPartitionedCall/functional_1/conv2d_transpose_1/conv_transpose/input_sizes/2", "shape": [], "dtype": "int32"}, {"name": "StatefulPartitionedCall/functional_1/conv2d_transpose_1/conv_transpose/input_sizes/3", "shape": [], "dtype": "int32"}, {"name": "StatefulPartitionedCall/functional_1/conv2d_transpose_1/conv_transpose/ReadVariableOp", "shape": [2, 2, 12, 14], "dtype": "float32"}, {"name": "StatefulPartitionedCall/functional_1/conv2d_8_1/convolution/ReadVariableOp", "shape": [3, 3, 12, 14], "dtype": "float32"}, {"name": "StatefulPartitionedCall/functional_1/conv2d_8_1/Squeeze", "shape": [14], "dtype": "float32"}, {"name": "StatefulPartitionedCall/functional_1/conv2d_9_1/convolution/ReadVariableOp", "shape": [3, 3, 14, 14], "dtype": "float32"}, {"name": "StatefulPartitionedCall/functional_1/conv2d_9_1/Squeeze", "shape": [14], "dtype": "float32"}, {"name": "StatefulPartitionedCall/functional_1/conv2d_transpose_1/Squeeze", "shape": [12], "dtype": "float32"}, {"name": "StatefulPartitionedCall/functional_1/conv2d_6_1/convolution/ReadVariableOp", "shape": [3, 3, 10, 12], "dtype": "float32"}, {"name": "StatefulPartitionedCall/functional_1/conv2d_6_1/Squeeze", "shape": [12], "dtype": "float32"}, {"name": "StatefulPartitionedCall/functional_1/conv2d_7_1/convolution/ReadVariableOp", "shape": [3, 3, 12, 12], "dtype": "float32"}, {"name": "StatefulPartitionedCall/functional_1/conv2d_7_1/Squeeze", "shape": [12], "dtype": "float32"}, {"name": "StatefulPartitionedCall/functional_1/concatenate_1/concat/axis", "shape": [], "dtype": "int32"}, {"name": "StatefulPartitionedCall/functional_1/conv2d_10_1/convolution/ReadVariableOp", "shape": [3, 3, 24, 12], "dtype": "float32"}, {"name": "StatefulPartitionedCall/functional_1/conv2d_10_1/Squeeze", "shape": [12], "dtype": "float32"}, {"name": "StatefulPartitionedCall/functional_1/conv2d_11_1/convolution/ReadVariableOp", "shape": [3, 3, 12, 12], "dtype": "float32"}, {"name": "StatefulPartitionedCall/functional_1/conv2d_11_1/Squeeze", "shape": [12], "dtype": "float32"}, {"name": "StatefulPartitionedCall/functional_1/conv2d_transpose_1_2/Squeeze", "shape": [10], "dtype": "float32"}, {"name": "StatefulPartitionedCall/functional_1/conv2d_4_1/convolution/ReadVariableOp", "shape": [3, 3, 8, 10], "dtype": "float32"}, {"name": "StatefulPartitionedCall/functional_1/conv2d_4_1/Squeeze", "shape": [10], "dtype": "float32"}, {"name": "StatefulPartitionedCall/functional_1/conv2d_5_1/convolution/ReadVariableOp", "shape": [3, 3, 10, 10], "dtype": "float32"}, {"name": "StatefulPartitionedCall/functional_1/conv2d_5_1/Squeeze", "shape": [10], "dtype": "float32"}, {"name": "StatefulPartitionedCall/functional_1/concatenate_1_2/concat/axis", "shape": [], "dtype": "int32"}, {"name": "StatefulPartitionedCall/functional_1/conv2d_12_1/convolution/ReadVariableOp", "shape": [3, 3, 20, 10], "dtype": "float32"}, {"name": "StatefulPartitionedCall/functional_1/conv2d_12_1/Squeeze", "shape": [10], "dtype": "float32"}, {"name": "StatefulPartitionedCall/functional_1/conv2d_13_1/convolution/ReadVariableOp", "shape": [3, 3, 10, 10], "dtype": "float32"}, {"name": "StatefulPartitionedCall/functional_1/conv2d_13_1/Squeeze", "shape": [10], "dtype": "float32"}, {"name": "StatefulPartitionedCall/functional_1/conv2d_transpose_2_1/Squeeze", "shape": [8], "dtype": "float32"}, {"name": "StatefulPartitionedCall/functional_1/conv2d_2_1/convolution/ReadVariableOp", "shape": [3, 3, 6, 8], "dtype": "float32"}, {"name": "StatefulPartitionedCall/functional_1/conv2d_2_1/Squeeze", "shape": [8], "dtype": "float32"}, {"name": "StatefulPartitionedCall/functional_1/conv2d_3_1/convolution/ReadVariableOp", "shape": [3, 3, 8, 8], "dtype": "float32"}, {"name": "StatefulPartitionedCall/functional_1/conv2d_3_1/Squeeze", "shape": [8], "dtype": "float32"}, {"name": "StatefulPartitionedCall/functional_1/concatenate_2_1/concat/axis", "shape": [], "dtype": "int32"}, {"name": "StatefulPartitionedCall/functional_1/conv2d_14_1/convolution/ReadVariableOp", "shape": [3, 3, 16, 8], "dtype": "float32"}, {"name": "StatefulPartitionedCall/functional_1/conv2d_14_1/Squeeze", "shape": [8], "dtype": "float32"}, {"name": "StatefulPartitionedCall/functional_1/conv2d_15_1/convolution/ReadVariableOp", "shape": [3, 3, 8, 8], "dtype": "float32"}, {"name": "StatefulPartitionedCall/functional_1/conv2d_15_1/Squeeze", "shape": [8], "dtype": "float32"}, {"name": "StatefulPartitionedCall/functional_1/conv2d_transpose_3_1/Squeeze", "shape": [6], "dtype": "float32"}, {"name": "StatefulPartitionedCall/functional_1/conv2d_1/convolution/ArithmeticOptimizer/FoldMultiplyIntoConv_scaled_StatefulPartitionedCall/functional_1/conv2d_1/convolution_ReadVariableOp", "shape": [3, 3, 3, 6], "dtype": "float32"}, {"name": "StatefulPartitionedCall/functional_1/conv2d_1/Squeeze", "shape": [6], "dtype": "float32"}, {"name": "StatefulPartitionedCall/functional_1/batch_normalization_1/batchnorm/mul", "shape": [6], "dtype": "float32"}, {"name": "StatefulPartitionedCall/functional_1/batch_normalization_1/batchnorm/sub", "shape": [6], "dtype": "float32"}, {"name": "StatefulPartitionedCall/functional_1/conv2d_1_2/convolution/ReadVariableOp", "shape": [3, 3, 6, 6], "dtype": "float32"}, {"name": "StatefulPartitionedCall/functional_1/conv2d_1_2/Squeeze", "shape": [6], "dtype": "float32"}, {"name": "StatefulPartitionedCall/functional_1/concatenate_3_1/concat/axis", "shape": [], "dtype": "int32"}, {"name": "StatefulPartitionedCall/functional_1/conv2d_16_1/convolution/ReadVariableOp", "shape": [3, 3, 12, 6], "dtype": "float32"}, {"name": "StatefulPartitionedCall/functional_1/conv2d_16_1/Squeeze", "shape": [6], "dtype": "float32"}, {"name": "StatefulPartitionedCall/functional_1/conv2d_17_1/convolution/ReadVariableOp", "shape": [3, 3, 6, 6], "dtype": "float32"}, {"name": "StatefulPartitionedCall/functional_1/conv2d_17_1/Squeeze", "shape": [6], "dtype": "float32"}, {"name": "StatefulPartitionedCall/functional_1/conv2d_18_1/convolution/ReadVariableOp", "shape": [3, 3, 6, 3], "dtype": "float32"}, {"name": "StatefulPartitionedCall/functional_1/conv2d_18_1/Squeeze", "shape": [3], "dtype": "float32"}]}]}